models/treernn_best.pt (torch_old, 153512 bytes, 13 tensors)

mlp.wh_1.weight f4 [32, 276]
00000000: abca 3a3e 54b9 d5bd 1a60 b43d cc58 aebd
00000010: 10f0 f53c 21d5 233e e94c 623e 1719 663e
00000020: d677 1fbe 37b8 1abe 9208 91be 91ba 0f3e
00000030: 61b0 f43c bb35 b13e 3e4f 4d3e 4ecf 203e
00000040: 6ff3 be3d 36ee a5bc 5a22 9cbc b0e2 c6bd
00000050: 8668 e9bd fdcd cbbe 6370 f2bd 8f01 aebe
00000060: 1ba1 bbbe 8cb2 e0be da77 36be 1151 97be
00000070: 71e8 92be 7a20 8bbe 5be1 48be 67c7 61be
00000080: 984d f1bd 150d 83bd 34e7 43bd a98a a93b
00000090: 3628 9a3c 633d 5d3e 7005 943c 82f2 2abd
000000a0: 2ade 95bd bfd5 31be b114 613e 49a9 1d3d
000000b0: ba6d 723e dcc9 633e 306c e43d 7e8d c03d
000000c0: 8669 483e a059 703e 1a2c a53e e4cc 1e3c
000000d0: ee90 41be dd81 14be 2ef0 683d e359 b6bd
000000e0: f004 6dbd b1c0 ccbc 00f6 b5ba edc8 8ebc
000000f0: eb95 043c dc2c 143d f7f9 38be f39f d8bc
00000100: d087 68bc 8f5f 02bd 300e 37be 52b6 8bbe
00000110: 69a5 65be 387a abbe a6e3 25be 8819 a8be
00000120: 6059 66be d330 abbe 1562 bdbe d8a3 24bc
00000130: d62e 1cbd 90d8 34bd 80f4 3b3c 77f3 63bd
00000140: a025 cebc 90eb c73c 3c3f 483d 80ac 083a
00000150: e0d7 c03a f4a7 c13c 04da 043d 5203 f9bc
00000160: d85a 0abc d525 9f3e 91c5 11be ec5e b73c
00000170: b53c 243e 7447 1d3d 91fa 043f aacb 013f
00000180: e796 3bbe 859e 0bbe 88d1 913d 7c66 08be
00000190: f066 d0bb 9417 b8be 7a04 613e 5673 a6be
000001a0: 4c99 cebe d106 c7bd 7d7f 32bd 29cb 6c3e
000001b0: 8a6d 85be dbc8 dfbe 8a98 febd a3b2 1ebe
000001c0: 31e1 69bd 298c dcbe a646 79bd 6792 84bd
000001d0: 7ff1 8c3e 7a72 25be c277 023e 6d9c fa3e
000001e0: c0a3 8e3e 449a 67be 5cec 023f dc1b f4bd
000001f0: a827 13bd 7bb8 ccbd d1cb a1be 4c7b 1c3e
00000200: 7551 e53c 9069 a53d b185 e33d a009 5b3e
00000210: f986 acbe 71ca 893d eefa c5bc 63cf 46be
00000220: fec5 b7bc 040b ddbe 5fc8 8ebe 5e68 08be
00000230: 53e4 9bbc 93e2 9abe 43da efbd b2f7 163f
00000240: f79c 2cbe 7f69 02be abc3 46be 5fae 10be
00000250: 780a 09be f9bc b2be 7830 8c3d 26d4 223c
00000260: cd31 dcbd 7f47 05be 1171 45be 61fc b8be
00000270: aabd 57be a3cc 3dbe 5ef8 08bd 50fb c9be
00000280: 1ffc 0cbe fddb 7d3e 44a1 9abe fce6 69be
00000290: 7ae4 8b3e aaef 74be 8fc0 c43e 0ee5 463e
000002a0: 210e a43d 9699 b8be 610f 333e bd2b 2abe
000002b0: 35bf 1fbe fff8 a3be 912b e2bd 2ea4 abbe
000002c0: eb06 d23e 018a bdbd e4f0 ed3e b4f5 bfbe
000002d0: 566a 5bbc 5eec 423e c638 8fbe 88d6 a2be
000002e0: 3c76 963e f726 03be 8db7 06bf df9e 5dbe
000002f0: a718 a7be 88bd f6bd 43c5 58be 64e7 efbd
00000300: 5d9e 83be b8e9 3f3e 69da 6bbe 5b6e 9dbe
00000310: e992 c0be c150 e2be fa23 44be 636a 733d
00000320: 4963 e4bd 80ba 56be d859 c03c 3021 0fbf
00000330: 8871 b7be c888 61be 2a73 65be 25bf 213e
00000340: fc56 193e fdbf adbe e9ee a93e a93c b23e
00000350: cfae f93d 26f3 37be c555 403e 292c 63bd
00000360: 82ee 673d 4c3f 26bd e9e6 f23d 31e3 1ebe
00000370: 26fb 4fbe ccc3 4abe 7cc4 483c 1a23 993d
00000380: 2456 32be 3749 2dbb d606 3b3e ea74 89bd
00000390: 4fb6 44be 6ce1 103f d6aa 803d ea1d 293e
000003a0: 748e 313e 8b2e e73d dee1 aebd 367f 133f
000003b0: 4bf4 e9bd 3105 b9bd b4d1 733d 955a a03d
000003c0: dbd8 50bd 72d6 2e3f dd6c c93e c898 d6bd
000003d0: fc33 a0bd 57ad a8be cbc8 24be c88f a93e
000003e0: 90a3 b2bd 7af2 083e 67be 8c3e f28d 1bbe
000003f0: df31 0cbe 00b2 f4bd dd2c 233f 7c14 bb3e
0.18241374 -0.10435739 0.088073924 -0.085130304 0.030021697 0.15999271 0.22099651 0.22470509
-0.15573058 -0.15109335 -0.2832685 0.14036013 0.02986926 0.34611306 0.2004976 0.1570408
0.09323775 -0.02025519 -0.019059349 -0.09711206 -0.113968894 -0.39805594 -0.11837842 -0.33985564
-0.3664635 -0.4388622 -0.17819157 -0.29554036 -0.28692964 -0.27173215 -0.19617216 -0.22048722
-0.11782378 -0.063989796 -0.047827914 0.0051740003 0.018818002 0.21605448 0.018068999 -0.04173518
-0.07317765 -0.17366694 0.2198055 0.03849152 0.2367467 0.22244972 0.11153448 0.094019875
0.19571504 0.23471689 0.3226021 0.009692404 -0.18902943 -0.14502664 0.05686968 -0.08903863
-0.057866037 -0.024994226 -0.0013882518 -0.017429793 0.008092384 0.036175594 -0.18064104 -0.026443457
-0.0141925365 -0.031829413 -0.17876506 -0.27287537 -0.2242638 -0.33491683 -0.16200122 -0.3283198
-0.22495031 -0.33435687 -0.36988893 -0.010048829 -0.038130604 -0.044151843 0.011471868 -0.055652108
-0.025164425 0.024404317 0.04888843 0.0005213693 0.0014712773 0.023639657 0.03243448 -0.030397091
-0.00844451 0.3108355 -0.14235522 0.02238413 0.16038783 0.03839822 0.51944834 0.5070139
-0.18319283 -0.13634689 0.07120043 -0.13320345 -0.0063599274 -0.3595549 0.21974364 -0.3250987
-0.4035133 -0.09718097 -0.043578614 0.23124374 -0.26060134 -0.43707928 -0.12431438 -0.15497832
-0.057099525 -0.43075684 -0.06085839 -0.064732365 0.27527997 -0.1615695 0.12740996 0.48947468
0.27859306 -0.22617441 0.51141906 -0.11919376 -0.03592649 -0.09996124 -0.31600812 0.15281409
0.027992943 0.08076775 0.11109484 0.2139039 -0.33696726 0.06728066 -0.024167504 -0.19415049
-0.022433277 -0.43172467 -0.27887246 -0.13321063 -0.019029772 -0.30250987 -0.11711552 0.58971703
-0.16856752 -0.12735556 -0.19410579 -0.14129017 -0.133829 -0.349098 0.06845182 0.009938275
-0.10751686 -0.13015555 -0.19281413 -0.3613005 -0.21068445 -0.18535094 -0.033439986 -0.3944955
-0.13768052 0.2479095 -0.3020116 -0.2284202 0.2732275 -0.2391955 0.3842816 0.19423315
0.080105074 -0.36054677 0.17486335 -0.16618247 -0.15600283 -0.32025906 -0.11043466 -0.33523697
0.41020903 -0.09254838 0.46472847 -0.37492144 -0.013392052 0.1903548 -0.27973002 -0.318043
0.2938708 -0.12807833 -0.52623826 -0.21642636 -0.32635996 -0.12047869 -0.21169 -0.11714056
-0.2570676 0.187415 -0.23032536 -0.30748257 -0.37612084 -0.44202235 -0.19154349 0.05942763
-0.1115175 -0.20969582 0.02348034 -0.55910015 -0.35828805 -0.22024834 -0.22407213 0.15795572
0.14974588 -0.33935538 0.33190086 0.34811905 0.12191545 -0.17963848 0.18782718 -0.055462036
0.056623943 -0.04058771 0.11860449 -0.15516354 -0.2031065 -0.19801253 0.012253877 0.07477398
-0.17415673 -0.0026441345 0.18264326 -0.06711753 -0.1921017 0.56593966 0.06282584 0.16515318
0.17339498 0.11288174 -0.085391745 0.57615983 -0.11423548 -0.09034193 0.05952616 0.07829777
-0.05098806 0.6829597 0.3934087 -0.104783595 -0.07822415 -0.32944748 -0.16092221 0.3311751
-0.08722603 0.13373747 0.27489015 -0.15190867 -0.136909 -0.11948013 0.6374033 0.36539066

mlp.wh_2.weight f4 [96, 32]
00000000: 46d9 92be ce67 183e c7ae e9bc c4ec 133e
00000010: 81d1 cabe 9581 debe 0c47 33bb 6c23 5b3e
00000020: 32da be3c d8d3 f2bd eceb afbd 015f 783e
00000030: 6dc4 8cbc ff9e 783c 166d 043e 7722 43be
00000040: 555d 793d 9151 4ebe 8434 b03d beca cdbe
00000050: 3fa2 233d b9cb c13e d1b8 763d c343 07be
00000060: d2ea 3cbe 21c4 f43c 9a7d 36bf d5c9 e9be
00000070: 2834 353d 0cb6 4b3e 0375 cd3c 0987 cdbe
00000080: 027a 173e 7464 923e a915 ac3e 8ac0 273c
00000090: 7e3c cebe 7aa2 873d f5df 1fbd 8f0e a03e
000000a0: 1cf4 17bd ec31 dabd 5a34 abbe 1b05 a63e
000000b0: 51c0 d8be 1ad1 4e3d 8302 363e e2ed 313a
000000c0: f6a1 043e 7765 eb3c 7569 033f 5343 653d
000000d0: fcf8 21bc 713b a63e 5c7a 1e3c 9ab2 c4bd
000000e0: 3f8b 4dbe be3b c73c fb93 fbbe 6f90 56bc
000000f0: e542 b6bd dc17 0abf bebe b0bd 3e38 cdbe
00000100: b062 0bbe f97a 64be fc01 8abe 9022 dfbc
00000110: 35e9 0b3d 784a 523e 3f07 433e e2d9 df3e
00000120: be51 d43d 216c 3abe d175 1ebe bb46 25bd
00000130: cd10 fd3c 908c a23d 36a3 3bbe fae8 cb3c
00000140: dd70 b73e 7e7a 003e 327b 8a3e 03ea 463e
00000150: 960c 97bc 2bd2 363e 320b 063e 30f3 e53c
00000160: 3668 343e d082 bd3d 2c0a e7be 0465 75bd
00000170: e80d 993e 9c18 28bd f8ec 0ebe bbb9 53be
00000180: 7f5d fd3d 349b 563b 2af1 26bd 6950 89bd
00000190: 1f78 7fbc cbd4 0fbd 85f5 b93d 0798 2ebd
000001a0: dfb9 c4be 1a80 84be 5d62 8fbd 5006 073c
000001b0: 2929 c0be 0001 b7bd 950e bf3d 46fc f5bd
000001c0: 8353 f63c de8f f03d 2e58 2b3e b084 86be
000001d0: 3b3e d63d 9757 58bd 133b 853d e4c5 9b3d
000001e0: 1479 88be 3247 063e 45dc 2bbf b538 493d
000001f0: 0d52 8bbd f17f a8bd 081e 32be a9f6 67be
00000200: 8c81 a4bd 9567 f03d 7c8a e6bd 6650 c2bb
00000210: cbd2 02be 193d 17be d048 21bf 28df 1b3d
00000220: 3230 9ebe aa0e 8fbe e73e 013e 0a5a 0c3d
00000230: 2936 b4bd bed6 d23b 8c0d 483d cde7 76be
00000240: 25f4 dabd 8f1f 203e 5776 c8bc 9d1d 93be
00000250: 8306 3a3b df35 7d3d 3424 bb3d 75ac 0ebe
00000260: ec49 70bd b902 753e d70d 84be 990b 80be
00000270: 3690 08bd 41b8 94bd 1864 913d 481c d53b
00000280: e4b2 8fbd 3c66 75bd ded6 86bd cbdb b4bc
00000290: 0796 7d3c 9b2a 03bf 74e3 dfbd 90e9 e83c
000002a0: 0aee 493d b938 2bbe bb8c 323e 0fb4 063e
000002b0: 20d2 88be edf4 fe3d 9843 583e d8bb debe
000002c0: 3104 d5bd 613a b23d 130d 9a3b f7cb b5be
000002d0: 58a4 aabc 939e 63be b166 5e3d bcd2 bdbd
000002e0: 7fdc 50be 7ae5 693e 7843 13bf 8e31 dabc
000002f0: 6671 1e3d b718 9abc 2fd0 dc3d afab 1bbe
00000300: 50f3 f63d 3912 6fbd df05 3b3d 93d2 9fbe
00000310: f247 f03d 4cd8 2f3e 49a1 0a3f d513 323d
00000320: add8 be3e cb31 303d 0a0a cebd 5e38 083d
00000330: 53f0 8c3d 90c0 2d3d 443f e53d 76cc ae3e
00000340: be38 d1ba 34f4 8f3e f7f4 93bd 88b1 8f3e
00000350: 6344 f9bd 0780 e83d 1f2b 67be ff8e e53d
00000360: a48f 4bbd 942d fcbc 1bbc 953f d058 2cbe
00000370: 20d4 89be d448 b1bd ec13 b73d e418 e33e
00000380: 1a57 aebd 146c 9ebe e9d7 913b e132 f43d
00000390: a354 6b3e ec63 3c3e 3039 b33e 7a44 1bbe
000003a0: 3aa0 20be df3f 003e b431 213e ebfc 0bbf
000003b0: 1961 183f b7c4 9b3d 1e43 83be 2751 6c3d
000003c0: fc2b 87be ca96 89bc 6ed0 bfbe 13ee 6b3a
000003d0: 6934 73bd 235c e2be d231 68be 3fe1 6c3e
000003e0: 9364 a8bc 5b40 06be 152e df3e edef 2f3e
000003f0: 3fc0 3e3c 7db3 b03e 7aac 823c 9063 253e
-0.2868139 0.14883348 -0.028525723 0.14445788 -0.39612964 -0.43458238 -0.002735558 0.21400231
0.023297403 -0.11856812 -0.085899204 0.24254991 -0.017183507 0.015174626 0.12932238 -0.19056116
0.060880024 -0.20148303 0.086037666 -0.40193743 0.03994965 0.3785074 0.06023485 -0.13209443
-0.18448952 0.029878678 -0.712854 -0.45661798 0.044239193 0.19893664 0.02508021 -0.40142086
0.14792636 0.28592265 0.33610275 0.010238776 -0.40280527 0.06622787 -0.03903194 0.31261107
-0.037098035 -0.10654053 -0.3343838 0.3242577 -0.42334226 0.050492384 0.17774396 0.00067874615
0.12952408 0.028734906 0.5133279 0.05597241 -0.009886023 0.32467225 0.009672727 -0.09604378
-0.2007265 0.02432048 -0.49136338 -0.013095959 -0.08899478 -0.53942657 -0.08630131 -0.40081972
-0.13611865 -0.22312535 -0.2695464 -0.02723816 0.03415795 0.2053622 0.19045733 0.4372092
0.103671536 -0.1820531 -0.15474631 -0.040350657 0.0308918 0.079369664 -0.18323979 0.024891365
0.35828295 0.12546727 0.27047116 0.19425206 -0.018438619 0.1785361 0.13090208 0.028070062
0.17617878 0.09253466 -0.45124948 -0.05991079 0.29893422 -0.041039094 -0.13957584 -0.2067632
0.123713486 0.0032746317 -0.040757336 -0.0670479 -0.015592604 -0.035115045 0.09080032 -0.042625453
-0.38423058 -0.25878984 -0.07001183 0.008241251 -0.37531403 -0.089357376 0.09328953 -0.12011008
0.030069118 0.117461905 0.16732857 -0.26273108 0.10461088 -0.052817907 0.06505408 0.07606104
-0.26654875 0.13113096 -0.6713298 0.049126346 -0.06802759 -0.08227528 -0.17394269 -0.22652687
-0.080325216 0.11738507 -0.112568825 -0.0059299944 -0.12775724 -0.147694 -0.6300173 0.038054615
-0.30896145 -0.27940875 0.12621652 0.034265555 -0.08799393 0.0064342907 0.048841044 -0.24111862
-0.10691098 0.15637039 -0.024470491 -0.2873353 0.002838523 0.061818954 0.091377646 -0.13932975
-0.058664247 0.2392682 -0.2579181 -0.25008848 -0.033340655 -0.07261706 0.070991695 0.0065036155
-0.070165426 -0.05991195 -0.065839514 -0.022077462 0.015477664 -0.51236886 -0.10932055 0.028431684
0.049299277 -0.16720857 0.17436497 0.13154624 -0.26722813 0.1244906 0.21119535 -0.43502688
-0.1040119 0.08702541 0.0047012656 -0.35507175 -0.020830318 -0.2222846 0.054297153 -0.0926871
-0.20396613 0.22841445 -0.57524824 -0.026634958 0.038682364 -0.018810613 0.10781895 -0.15202211
0.12058127 -0.058366988 0.045659896 -0.31215343 0.117324725 0.17172354 0.5415235 0.043475945
0.37274686 0.043016236 -0.100605085 0.03325688 0.06881776 0.04241997 0.111937076 0.34140366
-0.0015962345 0.28116 -0.07224458 0.28065133 -0.12171247 0.11352544 -0.22575043 0.11208915
-0.049697533 -0.030783452 1.169803 -0.16830754 -0.2691965 -0.08656469 0.08939347 0.44354928
-0.08512707 -0.30941832 0.0044507873 0.11923767 0.22981505 0.18397492 0.35004568 -0.1516284
-0.15686122 0.12524365 0.15741616 -0.546828 0.5952316 0.0760588 -0.25637144 0.05769458
-0.26400745 -0.016795535 -0.37463707 0.00090000144 -0.059376154 -0.4421092 -0.22675255 0.231328
-0.02055577 -0.13110487 0.43589845 0.17181368 0.011642515 0.3451194 0.015951384 0.16151261

mlp.wh_3.weight f4 [64, 96]
00000000: 7c2d bc3e 2748 5e3e f832 1f3e 61bc 443d
00000010: e50c d23d b2e7 373e 4962 2cbe b4b1 d2be
00000020: 4161 9fbd 9ea6 a9be e8df 243e 9a97 8dbd
00000030: a1cf d43e 4207 02be 8092 e5bd b8f8 8f3e
00000040: 6974 abbd 7ae2 46be fd32 58bd a37f cc3e
00000050: 5610 bcbc e6c5 1abe c81d 523e 40c9 48be
00000060: 24f1 0abe 06ef ca3d 7166 d03e a52d 7fbd
00000070: 6cc8 35bf 346c 3abb f9d3 013e 9ca1 ebbd
00000080: 049d 863e 90bf 1dbe 6fec dd3d 1c06 82bd
00000090: bdb1 5e3e 93e1 12bf 23f5 a1be d800 dd3e
000000a0: 06d3 ca3d 54d9 643e ba06 343e 3980 3a3e
000000b0: 0d6b 2ebe 3f17 a0bd 2ec6 6ebd 939f ab3e
000000c0: 7997 2b3f 12c1 71be 4cf3 76bd 2d4a a73d
000000d0: 472c 99be cdcd 203e bc9f 38be 170f 82bd
000000e0: 8c63 153d cbbb acbd 37c0 9f3d 27db 06bf
000000f0: 135b d1be 779a 3bbe 5809 06be e3a9 e23e
00000100: efd1 49bd 347d 76be e09d edbd 7b2d 43be
00000110: 5f81 34bc 6c7a 7abd a7f5 713e aac9 653e
00000120: e319 40be 8cef 4abe cc72 8e3e 5c10 38bc
00000130: 1467 8dbe 3555 4b3e 19c5 de3d 8fe4 c83d
00000140: cfcf ad3e 177c 90bd d88b 323d db90 17be
00000150: 146d 7c3e 655a 82be 81c2 b23d 87e2 dcbd
00000160: 57d6 bcbe 206f 233d 146a 173e 9b57 523e
00000170: 72e2 d73d cedf 893d 48a3 9d3d 2d1b 9abd
00000180: 1f36 1f3e 26f1 49be 75f5 2d3e e3cb 28bf
00000190: e373 9ebe 7393 8abd ebf7 b1bd b581 4cbb
000001a0: add7 b83e 3bb9 3f3e a489 e3bd 319f 483e
000001b0: 5d18 a43c 7569 173e b086 e13d 0180 223d
000001c0: 9666 863e 7d43 59bd 30fb 06bf e3af 95be
000001d0: 39bc 51bd b653 9f3d 27b0 63bc 6f5b 4d3e
000001e0: f9eb 6f3e cb3f 803c aa99 25be d734 e03e
000001f0: aea1 a03e b985 1cbe 83ee 46be b60d 413e
00000200: e77a 18bd bf31 273e 8beb cabd ef50 d83e
00000210: 2789 95bc bda7 08be 68f1 9c3d 9248 e2bd
00000220: 4a69 4fbc 33c7 933c 08c0 a23d 06e8 213c
00000230: 3008 cbbe e1a4 67be a477 4abd 9908 65be
00000240: 5a19 503d 3c85 96be 2bad 383e 3f3a 403d
00000250: 27b5 dbbc c7f3 423e 48ce 5cbe 41b5 0c3f
00000260: 71d0 43bd 768a c8bc 62fa 39be 7b73 cc3e
00000270: ad28 bebd 9aed 59bc 12b1 c73e 9563 4bbe
00000280: 56f0 793d bb13 c0be 5421 5a3e 4cb6 0dbe
00000290: de4b 433f e93d 743e 28c3 5a3e 950f cbbe
000002a0: 1bc4 ff3c 6978 42be f00b e93e 3633 16bd
000002b0: 5473 b93d 49d2 b4bd dbc2 ba3b ae11 9ebc
000002c0: 9151 0fbf 8fd5 4d3e c48a 08bd fe66 45be
000002d0: 2e14 5f3c 842d 0b3d 5807 c23d abfa 67be
000002e0: a24a 50be bfad 833c 352e 5dbe a6ca 3dbe
000002f0: 57eb b6be 9fef 6ebe 79d2 bc3e 4845 843e
00000300: 7e40 c9be d056 83bc 0001 07bf 6d68 4bbd
00000310: 873c a43d a6b9 19bf 8c00 703e 180b e53d
00000320: 41d6 aabd 43ae 063e b1a1 de3e 242c 543e
00000330: dfef 01bf 4796 ab3d 59d7 7fbe 464a e83d
00000340: 6ead 9dbe e2f5 82be f5f3 893e 88f9 cd3c
00000350: 7665 973e c8ff 98be 8522 ae3b 2207 fdbd
00000360: e50f 28be acd7 45be 91c4 b6bc 3c0d 4cbe
00000370: 045f f5bd f5b5 753e 8a89 04be b4df 87be
00000380: 841f 40be 3ad3 2f3d 1868 27be 9601 933d
00000390: 07d8 46bc 9a6e 4e3e 5fce 3abe c836 32be
000003a0: 42d1 50bd 0ec3 1c3e 77f4 b3be 75f2 e9bd
000003b0: 6261 f7be d00d b83e 757e 9f3d 1bbb c6be
000003c0: 47dd 65be 05fa 4dbd 8a44 453e 3870 183e
000003d0: de77 b03e 3b2d 2dbd ab4c 943e 6b61 adbe
000003e0: 77ca 3abe 588f 21bf ada3 193e ff39 05bb
000003f0: d4f2 903e 376f b6bd 3438 1ebf f032 ec3d
0.36753452 0.21707211 0.15546787 0.048031215 0.10256366 0.17959478 -0.16834368 -0.41151202
-0.077822216 -0.3313493 0.16101038 -0.06913681 0.41564658 -0.12698081 -0.11209583 0.28119445
-0.08371813 -0.19422331 -0.052783 0.3994113 -0.022957008 -0.15114555 0.20519173 -0.19608021
-0.1356855 0.09908871 0.40703157 -0.06229939 -0.71008945 -0.0028445842 0.12678517 -0.11505434
0.26291668 -0.15405107 0.10836112 -0.063488215 0.2174749 -0.5737545 -0.31632337 0.43164706
0.09903531 0.22348529 0.17580691 0.18212976 -0.17033024 -0.07816934 -0.058294468 0.33520183
0.67028004 -0.23608807 -0.06029062 0.08168445 -0.29916593 0.15703507 -0.18029684 -0.063505344
0.03647189 -0.08434256 0.07800334 -0.5267815 -0.40889797 -0.18320642 -0.13089502 0.44270238
-0.049272474 -0.24071199 -0.11602378 -0.19060318 -0.011017173 -0.061151907 0.23628865 0.2244021
-0.18759875 -0.19817942 0.27821958 -0.011234369 -0.27617705 0.19856723 0.10877437 0.09809219
0.33947608 -0.07054918 0.043590397 -0.14801352 0.24650985 -0.2545959 0.08728505 -0.10785394
-0.36882278 0.0399009 0.1478656 0.20541231 0.10541238 0.067321405 0.07697159 -0.075247146
0.1554799 -0.19720897 0.16988166 -0.65936106 -0.3094779 -0.06766405 -0.08689865 -0.003120524
0.36102048 0.18723004 -0.11110237 0.19591977 0.020031149 0.14786322 0.11012018 0.039672855
0.26250142 -0.053042877 -0.5272703 -0.29235753 -0.051204894 0.077796385 -0.013896978 0.2005441
0.2342986 0.015655419 -0.161719 0.43790314 0.31373352 -0.15285386 -0.19426923 0.18852887
-0.037226584 0.1632757 -0.099082075 0.42249247 -0.018253876 -0.13345237 0.07663232 -0.11048998
-0.01265938 0.018039322 0.07946783 0.009881979 -0.39654684 -0.2262149 -0.049430504 -0.22366561
0.050805427 -0.29398525 0.18034808 0.046930548 -0.026819779 0.19038306 -0.21563065 0.5496407
-0.047806207 -0.024480086 -0.1816192 0.39931855 -0.09285102 -0.0133012775 0.3900228 -0.19862206
0.061020218 -0.37515053 0.21301776 -0.13839072 0.7628764 0.23851742 0.21363509 -0.39660326
0.03122144 -0.18991245 0.4551692 -0.036669932 0.090552 -0.08829171 0.005699498 -0.01929554
-0.55983835 0.20100997 -0.033335462 -0.1927757 0.013615651 0.033978954 0.09474057 -0.22654216
-0.2034097 0.01607406 -0.21599658 -0.18534335 -0.35726425 -0.23333596 0.36879328 0.25834107
-0.39307016 -0.016032606 -0.527359 -0.049660135 0.08019357 -0.600489 0.23437709 0.111837566
-0.08341647 0.13152413 0.43482736 0.20719963 -0.5075664 0.083782725 -0.24984492 0.113422915
-0.3079638 -0.2557822 0.26943937 0.0251434 0.29569596 -0.29882646 0.0053141736 -0.12354876
-0.16412313 -0.19320554 -0.022310527 -0.19926924 -0.119810134 0.23995192 -0.12943092 -0.2653786
-0.18762022 0.04292605 -0.16348302 0.07178037 -0.012136466 0.20159379 -0.18242787 -0.1740371
-0.050980814 0.15308782 -0.3514745 -0.11423198 -0.48316485 0.35948038 0.07787792 -0.38814625
-0.22447692 -0.050287265 0.19264427 0.14886558 0.3446645 -0.042279463 0.28964743 -0.33863387
-0.18241297 -0.6310935 0.15003844 -0.0020328758 0.28310263 -0.08907931 -0.6180451 0.11533153

mlp.wp.weight f4 [32, 64]
00000000: 3c28 62bb b03a f8bd 81e5 243e 98ea 3dbd
00000010: 5c70 33be 9e9f a5be 5c26 abbe dc81 333e
00000020: 536b 703e 8ed2 f93d 8e73 b6bc 3648 dc3d
00000030: dfdc 6bbd b0ff 58bd 56da a13d b976 52be
00000040: d995 efbe 1d1f 6c3e 0bd1 d0be cad5 bdbe
00000050: 33ad 483e bcb5 a0bb 9d01 35be c905 cbbd
00000060: 5a7c df3d 1b23 6b3d e70d 72bd 0876 25be
00000070: 26d0 073e fcab 2bbd b683 8a3d 3594 f83c
00000080: c7df 76bd e5ef b33e bfaf 823e 53e2 0d3e
00000090: 5c54 b03e dfd8 81be 0d0b 6c3e 7ec3 8dbd
000000a0: 6d64 babe d75b 4d3e 9b6e 19be 6b11 3fbe
000000b0: 90c0 bebb e357 1f3e d6f4 813c 0f22 01bf
000000c0: 5881 3fbe 9914 943c 836e b7be 45a4 6e3e
000000d0: 6bcc babd a87f 4b3e a60d 873e 853e 513e
000000e0: 81cd a6bd a267 c13e feef e3bc a1e1 4cbe
000000f0: 5879 3abe 2eb1 0cbf e54d 0fbe c695 1f3e
00000100: ef31 cebc c568 ac3d ba0a a1be c36c 1b3e
00000110: 62aa fdbd e5f5 46be 7c41 a33d 6bc4 e8bd
00000120: dab7 31be eed9 40be 37bd ef3d 0779 9dbe
00000130: 8972 90ba 25dd 38be dd68 52be b49d 8fbd
00000140: 41f6 883e 3bf0 0cbd 0f61 473e 0c50 993e
00000150: a0d8 183e 2562 703d 404b 7f3d 5533 c43d
00000160: 8051 b63d 0176 273d 046a b93d e5a4 323e
00000170: 3a1a 2ebe a0c5 f83d a7db 6d3b 0c2d fd3b
00000180: e89c 7c3d d86d 4cbe 642a 6c3e 9622 6ebe
00000190: 960c 3fbe 9403 5dbe b38c 8ebb 5ce3 b2bd
000001a0: 59f9 993e 6a2b 1fbe 3c83 243d 375d 50bc
000001b0: c382 80be bef5 e9be 7663 43be d893 893e
000001c0: b3af b13e 9438 353d 9464 aebd c307 163e
000001d0: dced 103e be8c e4bc f144 e63c bd3a a73c
000001e0: 07f2 a7bd b098 2ebe e98f 1b3d c1df 4fbd
000001f0: f269 a83d 4cc8 c23e b6e2 f9bd 076e 2bbc
00000200: 0e3f ccbc c8aa cebd 6f02 653d 5b17 a13d
00000210: 18d1 73bd cfa2 6b3e 5bab 3e3e ffbc 2f3e
00000220: 7921 203e a8df 25be dcd7 aebd 010c a03e
00000230: a5df ab3c fca4 053e 8660 b93d 9ad2 97be
00000240: d1d6 94be e945 f7bd 4527 a9be 1550 58be
00000250: c607 e83e 52e0 a1bc e108 4dbe 9773 2fbe
00000260: 10aa c7bd a768 133b 494a 843d b474 abbd
00000270: 3707 3e3e 2800 30bc 307b 25be fa42 ed3d
00000280: ed75 0b3e d8d8 18be 75a7 f63d 00f4 91bd
00000290: db19 d03e 9de0 163e 95e9 93bd dae8 8cbd
000002a0: 7521 343d bb64 9e3e 5e4f 603e d2f9 073e
000002b0: 3f7b 833e 0f5b e83d a3ed 543e 732c 9ebe
000002c0: 45da 5dbe 9983 b3bd 892b 533e 4b9f a23d
000002d0: 636f 7dbd 421f 07bd 3fec 293e ccd7 393e
000002e0: 32cd 553d 72c3 823e 9ff1 5a3d d421 99be
000002f0: 4f20 9d3e 77b9 bbbe e1ab c1bd 959d bfbc
00000300: 2832 083f c924 e4bd 3887 5f3c b10f ca3e
00000310: 6fb2 ecbc 3fa7 983e 753a 35bf 2658 0c3e
00000320: 7096 50bc f60a 5dbd 5144 063e 78d0 153e
00000330: 4b5b 833c 5d93 82bd 784d 66be 294d ecbc
00000340: 7ebc 2fbe 7fbf ba3c 2d2a c8bd 3c7b 76be
00000350: f241 afbc 95f7 37be 559d 85be 8282 2a3e
00000360: 12fd 163f d6d8 873f 39f9 e4be 6ccd 46be
00000370: 2c64 8b3d 7984 293f 80d1 573f 3065 a03d
00000380: 6f46 edbe d86a 32be 4ab6 cc3d 091a e8bd
00000390: 40bb 903d f873 cd3d 8570 91be 8e12 0cbf
000003a0: 679f bd3e bdd0 2d3e e588 243d 7484 d43c
000003b0: f762 843e 3a01 513f 7e9b 533e edfa 1abe
000003c0: dd04 5dbe b09f 51be dc84 873e 32c8 483d
000003d0: 7779 0cbd aa16 ae3e cf2e edbd 010f 9b3c
000003e0: 3141 d1bd 955d 5f3e 7d39 5dbe 5ce3 033e
000003f0: 6291 15bf bacf 2ebe 1333 d4bc dc29 803c
-0.0034508845 -0.12120569 0.16103174 -0.046366304 -0.1752333 -0.3234834 -0.33427703 0.17530006
0.23478441 0.12198363 -0.022271898 0.10755961 -0.057583686 -0.052978218 0.079029724 -0.20553102
-0.46794012 0.23058744 -0.40784487 -0.3707717 0.1959732 -0.004904477 -0.17676397 -0.09913213
0.1091239 0.057406526 -0.05909529 -0.16158307 0.13262996 -0.041912064 0.06763403 0.030344108
-0.060272004 0.35143963 0.2552471 0.13855867 0.3443936 -0.25360772 0.2305109 -0.06922053
-0.36404744 0.20054565 -0.14983599 -0.18658988 -0.005821295 0.1556087 0.015863817 -0.50442594
-0.18701684 0.018076228 -0.358265 0.23304851 -0.09121021 0.19872916 0.263776 0.20434006
-0.081446655 0.37774378 -0.027824398 -0.20007946 -0.18210351 -0.54957855 -0.13994558 0.15584478
-0.025170295 0.08418421 -0.31453496 0.15178208 -0.123860136 -0.19429739 0.079714745 -0.11365589
-0.1735529 -0.18833134 0.11706012 -0.307564 -0.0011020462 -0.1805311 -0.20547815 -0.07012501
0.26750377 -0.03440879 0.19470619 0.29943883 0.14926386 0.058687348 0.062327623 0.09580103
0.08902264 0.04088402 0.09053424 0.17445715 -0.17002192 0.12147069 0.0036294253 0.0077263173
0.061673075 -0.19963777 0.23063046 -0.23255381 -0.18657145 -0.21583396 -0.0043502687 -0.087347716
0.3007305 -0.15543905 0.040164217 -0.012717537 -0.25099763 -0.456953 -0.1908091 0.26870608
0.3470436 0.04424341 -0.085152775 0.14651398 0.14153236 -0.027899142 0.028109046 0.02041375
-0.0820046 -0.17050433 0.03797904 -0.050750498 0.082233325 0.3804344 -0.12201445 -0.010463244
-0.02493241 -0.10091168 0.055910524 0.07865783 -0.05952558 0.23011325 0.18620054 0.1716194
0.15637769 -0.161986 -0.08537266 0.31259158 0.020980665 0.13051218 0.090516135 -0.29652864
-0.29070142 -0.12073881 -0.33037773 -0.21124299 0.4531843 -0.019760285 -0.20022918 -0.17133938
-0.09749234 0.0022492798 0.06459481 -0.08371869 0.1855744 -0.010742225 -0.16160274 0.115850404
0.13619204 -0.1492647 0.12043659 -0.071266174 0.40644726 0.1473412 -0.072222866 -0.068803504
0.04397722 0.30936226 0.21905276 0.13278893 0.25679967 0.11345493 0.20793776 -0.30893287
-0.21665294 -0.08765335 0.20622076 0.07940539 -0.061873805 -0.032988794 0.16594027 0.18148726
0.052197643 0.25539738 0.053453084 -0.2990862 0.30688712 -0.36664936 -0.094566114 -0.02339057
0.5320153 -0.11139829 0.0136430785 0.39465097 -0.028893678 0.298151 -0.70792323 0.13705501
-0.01273118 -0.05396553 0.13111998 0.14630306 0.016034743 -0.063757636 -0.2249049 -0.028845387
-0.17161748 0.02279639 -0.097736694 -0.24070448 -0.02139375 -0.17965539 -0.26096597 0.16651347
0.58979905 1.0613048 -0.44721392 -0.194143 0.06806216 0.6621776 0.84304047 0.078318
-0.463428 -0.1742357 0.099957064 -0.11333091 0.07066965 0.10031885 -0.28406158 -0.5471581
0.37035677 0.16974159 0.040169615 0.025942065 0.25856754 0.81642497 0.20664784 -0.15134783
-0.21583886 -0.20471072 0.2646855 0.049019046 -0.034295525 0.34001666 -0.11581194 0.018928053
-0.102175124 0.21813042 -0.21603961 0.128797 -0.5842496 -0.17071429 -0.02590326 0.01564496

treelstm.and_.weight f4 [32, 32]
00000000: edc9 313d b93b 16be d6bc a03c 4155 a4be
00000010: 238e 463b 27d5 9bbd 1a08 86be f3a4 1e3e
00000020: bf04 01be 276a a9bd a8c5 003e 14c9 f3bc
00000030: ce9d 03be 70f3 32be 2b05 7d3d 303f bdbe
00000040: 7de6 0dbf 96f5 41be fb0c 703c 13b3 c0be
00000050: 6f98 8a3e d541 8dbe 22e8 02be 98c9 c2be
00000060: 2df1 fd3c 7677 f2bd 0437 c1be 28d4 ff3d
00000070: f29c a33b ae80 5b3e 7461 8e3e deb1 b33d
00000080: e8fa 963e fb68 d53d 5442 0dbc 7d36 583e
00000090: 6877 8d3e 5725 59bd 7fa2 273e 4eee 833e
000000a0: 9265 5d3e ee20 9bbe ce05 103d d91c aabd
000000b0: 8ca5 febd f81e efbd 0801 69be cc1b 79be
000000c0: a6a8 263e d9fe 19be 8883 c53d 6949 763d
000000d0: f510 5bbd d232 1abd b9c8 8abb 99bf b6bc
000000e0: 77ad 30be 1683 9cbc d2d4 9b3e 8b60 8c3d
000000f0: aca9 093d 19e8 9f3c 7568 35be 8a21 06be
00000100: 7419 3c3e 20d2 d43e 241c 0abe 3ca3 8ebe
00000110: 5caa 373e 8a0c 393d f90c 273e af14 7e3d
00000120: b097 b0bd 588d 74be 564f 27be be52 b53d
00000130: 91c4 9c3e 36c0 543e 7c6a 523e 3532 fbbd
00000140: d200 26be 7b19 27be b0c9 18be 08a3 10be
00000150: 7569 7a3c 936e bcbd 9bcd aa3d 0b0c 413e
00000160: 3726 3cbc ebfd 6bbd bf69 723d 84ce 32bd
00000170: 3b22 ffbd 5892 153e a853 813c 16b9 c63d
00000180: f409 99be 5245 e03e d050 8fbe cb1c 0a3c
00000190: c94d 10bc 66b5 7abe 4711 673d 6e44 413e
000001a0: 8927 073c 9097 cabd d29e 593e b319 01be
000001b0: 6c7c c53e cb08 d93d 38ac 6fbe b0b9 b13e
000001c0: 46be 07bd 4929 01be d707 df3e 6a45 a83d
000001d0: dade 0bbe 4479 f2bd 1203 313e 3a9e 7dbd
000001e0: 78c2 123e 7df9 873e 5a80 8abe a986 153d
000001f0: bd23 0dbf 10bf 473e c21d cbbd cba9 abbd
00000200: 38a6 6a3d 9348 0ebf b974 5dbc 393d 083e
00000210: 8b7a a5bd 4b4e 073c 18ac c83c 720c 5abe
00000220: c9ca 7e3e b9f0 f13d 160d ff3d ceb6 1b3e
00000230: d4ed 0a3d 397b 9bbc da9a 5abe 4e60 fa3d
00000240: 7c19 753d 9939 c53b f261 3dbd ea1e 2e3d
00000250: 4a7e e63d b81a babc 7004 c33c c42a 883d
00000260: c765 d03d 1ac0 423d d98b 1cbd 9304 973d
00000270: 071b 38be 765f af3d 5472 b13e e1e1 74bd
00000280: a5f4 dcbe e6ed e63c 03a2 3c3d 580a a9bb
00000290: ac0b 203d 58c4 c73e b9bb c03e 6405 90be
000002a0: 7248 dd3d f339 463e 159a 47be edb5 963e
000002b0: d37c 3ebd c0f7 6a3e 8770 f2be 104f c83e
000002c0: 7e56 fc3d c827 003f 2fc1 22be fdbd 35be
000002d0: 6dfd 99bd fb61 163e f6e0 64bd 2755 a1be
000002e0: 1499 2e3e 699a 233e c758 85be a278 32be
000002f0: e998 be3d 5cb1 7abe d45a c7be 61e0 573e
00000300: 42f6 6bbe 042e aebd edee e0bc 9bf4 a83d
00000310: 1678 7fbe 7eb7 82be 871f 943e 4739 6a3e
00000320: 1406 37be 28ca dbbd a182 343e 7d76 e23c
00000330: 01e6 a33e f8dc 5b3d df8a 78bd b40f e23d
00000340: 9c11 cc3d 7858 33be b010 d33d 3f34 f43d
00000350: d027 85be eabf 233e 1e4f b3bd 0556 a2bd
00000360: 4669 b73c 9bea 103e ab63 393c 9d60 153d
00000370: 5f5b 6dbc 9761 643d fe9f 41be c5b4 6a3d
00000380: 904d abbe 628b 123e 3dc8 febd dd65 fa3d
00000390: ce7b af3e 2b15 663e 2a13 8a3e 91d8 a9be
000003a0: 9b23 abbd f74e 28be 211b 3bbe 7058 2bbe
000003b0: 6987 bcbd e7fb 263d c2a2 253e 80ed f3bd
000003c0: c1c0 17be e7c1 163e 5620 75bd d55c 46be
000003d0: 8fa4 cabc 6cbf 523e 1ead 853c a864 c2bd
000003e0: 6f66 a53c 3d81 49bd bfdb 4d3d 9d64 383e
000003f0: 3747 6c3e 5ea3 b2bd b4c4 8ebe c56b d83d
0.043405462 -0.1467122 0.019621294 -0.32096294 0.0030297122 -0.07609015 -0.26178056 0.1549261
-0.12599467 -0.082722 0.125754 -0.029758967 -0.12853166 -0.17475677 0.061772507 -0.3696227
-0.5542982 -0.1894134 0.014651532 -0.37636623 0.27069423 -0.27589288 -0.12783864 -0.3804443
0.03099879 -0.118391916 -0.37737286 0.124916375 0.0049930746 0.21435806 0.27808726 0.0877416
0.294883 0.10420414 -0.008621771 0.21114536 0.27630162 -0.053014126 0.16370581 0.2576775
0.21620777 -0.3029856 0.035161786 -0.083062835 -0.12433919 -0.11675829 -0.227543 -0.2432701
0.16275272 -0.15038623 0.09644228 0.060128603 -0.05348297 -0.037646122 -0.004235354 -0.022308158
-0.17253672 -0.019105475 0.30435807 0.068543516 0.033609077 0.019519852 -0.17715628 -0.13098732
0.18369085 0.41566563 -0.13487297 -0.27858913 0.1793608 0.045177974 0.16313542 0.062031444
-0.08622682 -0.23882043 -0.16338858 0.088536724 0.30618718 0.20776448 0.20548433 -0.122654356
-0.1621125 -0.16318314 -0.14920688 -0.14124691 0.015283932 -0.09200778 0.083399974 0.1885225
-0.0114837205 -0.057615202 0.05918288 -0.04365398 -0.12457701 0.14606607 0.01578696 0.09703271
-0.29890406 0.43802887 -0.27991343 0.008429716 -0.008807608 -0.2448326 0.05641296 0.1887376
0.008249172 -0.098921895 0.21251991 -0.1260746 0.3857149 0.1059738 -0.2340554 0.3471198
-0.033140443 -0.12613405 0.4356067 0.08216365 -0.1365923 -0.11839536 0.17286327 -0.061918475
0.14331996 0.26557532 -0.2705105 0.036505375 -0.5513266 0.19506478 -0.09917785 -0.08381995
0.057287425 -0.5557949 -0.013516598 0.13304605 -0.08080014 0.008258413 0.024496123 -0.2129381
0.24882044 0.11813492 0.12453668 0.15206453 0.033918217 -0.018979656 -0.21348134 0.122254
0.059838757 0.006018829 -0.046235986 0.04250995 0.112545565 -0.022717819 0.023805827 0.06648782
0.101756625 0.047546484 -0.038219307 0.07373919 -0.1797906 0.085631296 0.34657538 -0.059785727
-0.431554 0.02818961 0.046052944 -0.005158704 0.03907363 0.39016986 0.3764322 -0.28129113
0.108048335 0.19358043 -0.19492371 0.29435673 -0.04650576 0.22946072 -0.47351477 0.3912282
0.123211846 0.500607 -0.15894006 -0.17748256 -0.0751904 0.14685814 -0.055878602 -0.3151028
0.17050582 0.15976872 -0.26044294 -0.1742883 0.09306509 -0.2448172 -0.38936484 0.21081688
-0.23043159 -0.085048705 -0.027457679 0.0824978 -0.24948153 -0.25530618 0.28930303 0.22873412
-0.17873412 -0.107319176 0.17627956 0.02764439 0.32011417 0.05367753 -0.060679313 0.110381514
0.09964296 -0.17514217 0.10305917 0.11924028 -0.26006937 0.15991178 -0.08755325 -0.07926563
0.022389065 0.14151995 0.011315267 0.03646909 -0.014487117 0.05575713 -0.18908688 0.0573013
-0.33457613 0.14310983 -0.12440536 0.1222646 0.34274143 0.22469012 0.26967746 -0.3317304
-0.083564006 -0.16436373 -0.18272068 -0.16732955 -0.09205515 0.040767577 0.16175368 -0.11910534
-0.14819624 0.14722405 -0.05984529 -0.1937135 -0.02473667 0.20580834 0.0163179 -0.09491855
0.020190446 -0.049195517 0.050258394 0.18007131 0.23074041 -0.08722566 -0.27884448 0.105674304

treelstm.or_.weight f4 [32, 32]
00000000: bfd2 8d3c 2106 51be 3a89 febd 133f fbbd
00000010: 13eb 793e 683f fb3c a7e6 56bf 2620 99be
00000020: afb4 a23d 333e 7a3c d807 af3b 30fa 9a3e
00000030: 8cf3 1a3e 8783 933e c7f8 d83d 1afa 02bc
00000040: d592 6d3f dff3 683d 4099 b4bd cba9 933e
00000050: f137 9cbe acd7 b63e 8571 393e b20c fb3d
00000060: 3256 ccbd 5cac e9bc b8eb 4f3e 1e34 533d
00000070: 480a 6d3e 200b 88be 2c3e 203f 478b 91bd
00000080: c318 d8bc bc2a 03be d107 64be 4450 3bbe
00000090: a65d 8c3d 0ba7 1a3e d166 a5be 8f44 a1be
000000a0: 8c79 dc3d f145 6e3e 9868 4ebe 8407 633c
000000b0: 360b 463f 6be1 f0be c129 3b3e 6375 81bd
000000c0: 0cd8 a73e 7143 903d 9ada 623c 9be2 c13f
000000d0: 421a 61bf c073 b53f 39c4 b73f b6ea a83e
000000e0: 09af 9fbc 6eac 1c3d 29f1 5a3e 811e 86bc
000000f0: 90fa 8fbd f0e5 10be 0933 26bb 4041 42be
00000100: 31e8 e23d 3732 51bd cf90 0f3f c69a 1abd
00000110: 5943 8a3d 94c8 ecbc 5c3f dcbc 5313 613c
00000120: 48d8 0bbe bf97 1a3e 6ef6 32bc 91e0 a2ba
00000130: 0e5a d7bd dc9a 763e c7c4 77be e65f 90bd
00000140: 4cb2 27bd f062 ecbd d4c2 b0be 7871 36be
00000150: b537 e93e ee2d 48be 4021 60be deac 81bc
00000160: a104 11be a772 0bbf 4f85 ed3d 211e 20be
00000170: c5f2 273e 145a 6fbc b96f 76bd bf01 00bc
00000180: cb53 ca3e aed7 68be d251 a5bc 005f 8f3d
00000190: ed06 18be eabd 42bd 17d6 603d f6bb aabc
000001a0: e915 183c 6942 f2bc a546 3ebd 3bd3 92bd
000001b0: 1d38 b8be d49d 17bf 00bb 093c e9ed babd
000001c0: 868b 58be 5e8a 95bc 5b01 133d c2a8 96be
000001d0: b695 5a3e 4a15 8e3d 478e bdbe 7214 82be
000001e0: e88d 23bd 0ccd 23be c1c3 c1bd 3bad febd
000001f0: 1530 3c3e 203f 833e 9bbf e33e bb59 873e
00000200: f04a 683e 0d99 343e 449b ff3d f706 713e
00000210: 1c48 0abe 574e cbbe ff9d 203f 2ac4 c83d
00000220: 175f 8fbd 902c b0be 0aa8 663e a1b8 31be
00000230: 7544 b2be bc83 543d e846 30be ac52 14bd
00000240: 5071 4bbf e8aa b1be 1000 95bd a10e f9be
00000250: f144 d83e 7191 a8be f773 0bbe 272d 5abe
00000260: 4586 a83e ad50 31be cb8a 25be e5e0 1cbb
00000270: 65a4 293c 6b52 893e 747e b0bf 8928 ab3e
00000280: 9714 32be 5f90 ef3d cbaf 303e 4eae 9d3c
00000290: 85f1 0e3e dc49 7a3c 5769 e33e 381b 4b3e
000002a0: 2c0a 843d 2329 3abe 36f9 22bd b285 c1bd
000002b0: b40e 15be 2c5f 33be 8864 07be 746d a2bb
000002c0: e624 24bf caa8 a43d ad15 3abd 7803 c5bd
000002d0: 2839 543d 2c55 29be fad3 fabd 875a 07be
000002e0: e08b 5e3e 8550 c3bd 41ba 75bd e0d9 fd3a
000002f0: bd77 24be 4c6f bf3d 93a3 87be ce52 6e3d
00000300: e8f2 f63d be7b 9ebd 8d97 fabc e400 d6be
00000310: f089 02be 6cc1 ef3e 934a e4bd 7c91 25bf
00000320: a623 303f cb92 2c3f 5d61 04bf 6283 f83e
00000330: 1d3f 313e 5f09 95bd 504e fc3e a5d8 53bd
00000340: ee49 6e3e 2ceb 383f 143a d9bd ea42 453e
00000350: d38e 413c 1d25 833d 0404 ba3d a034 1f3f
00000360: bfe8 36bf e5d5 94bd 1d2a df3e 7321 0cbe
00000370: 627c 3b3d 6011 e9be e6b2 efbd 80f7 cebe
00000380: c1fd 0abd d796 c9bd 0fb6 de3d 8ca1 373e
00000390: 8dd1 9c3d 66d6 64be 2c04 503e a117 65bd
000003a0: 0542 4a3d 1102 e93d 78c5 4b3e ac29 a53d
000003b0: b4d2 87bf 034e 56be 2931 63bd dace bfbd
000003c0: 9981 c4be 5708 ac3d d65f 463e fe26 84bf
000003d0: 4324 083f 4987 06bf e312 48bf 64fe 02be
000003e0: e535 c53d 8eb1 45be 1e2c c23d 391d f8bd
000003f0: 28a9 90bb 959e 503e c75f 383e d1d4 903d
0.017312406 -0.20412494 -0.12428518 -0.1226789 0.2440608 0.030669883 -0.839457 -0.2990734
0.07944619 0.0152736185 0.005341511 0.30269003 0.15131968 0.28811285 0.105943255 -0.007994199
0.9280217 0.0568732 -0.088182926 0.2884048 -0.3051143 0.3571142 0.1810971 0.12258281
-0.09977378 -0.02852457 0.20304763 0.051563375 0.23148453 -0.26570988 0.62594867 -0.07106643
-0.026378995 -0.1280927 -0.22268607 -0.18292338 0.068537995 0.15102784 -0.32305005 -0.3149762
0.10765371 0.23268868 -0.20157087 0.013856772 0.77360857 -0.4704698 0.18277647 -0.06321218
0.32782018 0.070441134 0.013846064 1.514728 -0.8793069 1.4175949 1.4356757 0.3299157
-0.019492643 0.03825038 0.21381058 -0.016371967 -0.07030213 -0.14150214 -0.002536001 -0.18970203
0.11079443 -0.05107328 0.56080335 -0.03774526 0.06751127 -0.028904237 -0.02688568 0.013737517
-0.13656723 0.15096949 -0.010923011 -0.0012426545 -0.105152234 0.24082512 -0.24196158 -0.07049541
-0.04094152 -0.11542308 -0.34523642 -0.17816722 0.45550314 -0.19548771 -0.21887684 -0.0158295
-0.14161922 -0.5447182 0.11597692 -0.15636493 0.16401203 -0.014608879 -0.06016514 -0.007812916
0.39517054 -0.22738525 -0.020180617 0.07000542 -0.14846392 -0.047544397 0.054891672 -0.02084158
0.009282568 -0.029572682 -0.04645409 -0.07169195 -0.3598031 -0.592252 0.008406401 -0.09127409
-0.21146974 -0.018254455 0.035889965 -0.29425627 0.21346173 0.06937654 -0.37022611 -0.25406224
-0.039930254 -0.15996188 -0.09461165 -0.12435385 0.18377717 0.25634098 0.4448212 0.26435646
0.22684836 0.17636509 0.124807864 0.23537813 -0.1350407 -0.39708206 0.6274108 0.0980304
-0.07000559 -0.34408998 0.2252504 -0.17355587 -0.34817854 0.051883444 -0.17214549 -0.036211655
-0.79469776 -0.34700704 -0.072754025 -0.48643973 0.42240098 -0.32923463 -0.13618456 -0.21306287
0.3291494 -0.17315932 -0.16166227 -0.0023937759 0.010354136 0.26820692 -1.378859 0.33429363
-0.17390667 0.116974585 0.1725456 0.019248154 0.1395932 0.0152763985 0.44416305 0.19834602
0.06447253 -0.18179755 -0.039788447 -0.094493285 -0.1455639 -0.17516774 -0.13221943 -0.0049568955
-0.641188 0.080400065 -0.045430828 -0.09619802 0.05181232 -0.16536397 -0.122474626 -0.13218127
0.21733046 -0.09536842 -0.05999208 0.00193673 -0.16061302 0.093474 -0.26491985 0.058184437
0.120580494 -0.07738446 -0.030589843 -0.41797554 -0.12747931 0.46827257 -0.111470364 -0.64675117
0.68804395 0.6741149 -0.51711065 0.48537737 0.17309232 -0.07277178 0.49278498 -0.05172028
0.2327039 0.72233844 -0.10606781 0.19263807 0.011813837 0.06403563 0.09082797 0.62189674
-0.7144889 -0.0726736 0.43586817 -0.13684635 0.045772918 -0.4552107 -0.11704044 -0.40423203
-0.033933405 -0.098432235 0.10874569 0.17932719 0.07657156 -0.22347412 0.20314091 -0.055930737
0.049379367 0.11377347 0.19899547 0.08064589 -1.0611176 -0.20928197 -0.055466805 -0.09365626
-0.38380125 0.08400028 0.19372496 -1.03244 0.5318033 -0.5255018 -0.7815382 -0.12792355
0.0962942 -0.19306013 0.09481071 -0.12114949 -0.0044146962 0.20372994 0.18005286 0.070718415

regressor.wh_1.weight f4 [80, 32]
00000000: 7580 0a3e 9b32 d0bd ac38 53be 77ae 1e3e
00000010: f13f d63e 9e50 9f3c 2515 f13d b23e 46be
00000020: ffb8 543e af6d 6bbe 8c58 893e b6ba 8a3e
00000030: 977f 6c3e 8c3e a93e 92ad 0bbe dfb2 823e
00000040: 2cfa 65be 69e7 40bd 2409 c03e 3665 3c3e
00000050: 1ce5 003f 1c73 59bd 2f04 273d 14f2 94bd
00000060: decb 79be 0c1d 6f3e 6ada 98be b038 b63e
00000070: b9f3 fcbe 3709 5ebd b326 efbd c637 cbbe
00000080: ce70 47be ef1f cabd d948 823e 58e4 a0bd
00000090: 2107 bfbd f585 b2bc db72 a4be ca95 993d
000000a0: f2cd 28be 273a 803d becf e8be a109 223e
000000b0: 0f98 9d3e b084 8ebc 42a7 05bd 7b87 8cbe
000000c0: acba d3bd d318 2c3d 515e 3f3d 1667 a7be
000000d0: ef5c 1bbe 36b1 b13e 029a 69be b275 6c3e
000000e0: 6bce ea3d 5764 4b3d 8694 853c d646 3d3e
000000f0: e4cb 7ebe 81b9 993e a7f0 953d c9fb 853e
00000100: bbb9 593e c9b3 37be 858f 283e 548e 1bbe
00000110: 2dec 11be a798 cd3d 54d8 9dbd decf b63e
00000120: cd8a 093e e935 c0bc 5820 183e 5ad5 46be
00000130: 7fa3 ce3d 8de4 a23c 3a38 9fbd c06e 18be
00000140: 792e 3e3d b30b e53e 318f c4be cb77 80bc
00000150: 5556 d23d b5e2 88be 280b 8dbe 2dd8 a6bd
00000160: 771a 36be 77c6 ad3d f832 2fbe bc6f 453d
00000170: 70e9 d83d 871d 003e 698f 903d d73a a03e
00000180: 16ab 1c3e 9179 0dbe 3a7f 80be 2e70 153e
00000190: 7caf c33d 7a74 063e 6546 493d 27c9 cc3c
000001a0: 97b9 f83d c028 3e3e e560 b23e 55df ff3e
000001b0: 3e09 8dbd 3c44 e8bd 02dc edbd c20c 9d3e
000001c0: 0956 e13e f173 6abe 2d17 0dbe 772f 5b3d
000001d0: 3b98 6e3e f23e 3b3d fbaf 43be 0d2b 5c3d
000001e0: d5f7 22be fb3f 613e 14b4 a9be ec97 943e
000001f0: 1ecf 4cbe b29f 0bbe 69fd 4a3d 02fa eabe
00000200: 6451 4e3e 0326 de3b e7dd 2abd 7bea cf3d
00000210: 2d72 b93d f4cf 363e 8946 ab3d 687b 033e
00000220: b72e 0c3e 55f3 633e a59a fa3e 36cb b63d
00000230: b9cd 03bd ec41 37be d4e6 d2bd 1690 7b3e
00000240: 1b84 913e 7c80 20bd 42ba 02be 9e55 ae3d
00000250: f639 063e 6ccd 85be 306a a2bd 00fc 91bd
00000260: e28f 61bc 792f aebd 18c8 ddbe 8b3d 09be
00000270: c185 143d 6e7a 8c3d f892 933d 1ddd 5c3e
00000280: aea1 98bc 15f1 79be 7a63 013e c025 a6bd
00000290: 56f5 553d 6f7e 72be fc15 9cbd cb4e 09bd
000002a0: 3201 1a3d cdeb 613e 04df d9be 1079 a83c
000002b0: bdfc ac3e 87fc 88be 1232 8b3e e39c 2cbe
000002c0: 260a d63d 42f1 38bd 824e 48ba 12fe 44bd
000002d0: 3f2c 433e 553e e33e c3d6 cbbd 2d5e 783c
000002e0: 82c7 503e 4254 a3be ee67 f03d ad99 c8bd
000002f0: 70b4 23bd b5ce b73e 3699 873d 634a b43d
00000300: 594f 953e 09da 8a3d d4bc 23be bdbc a33e
00000310: 9c9a eabe 97a5 bf3d 706f e33c a085 43bd
00000320: 354b c03d 81af 69be bf37 e13e 03d9 c63d
00000330: 1a3e 443e 812e 313e a871 2e3e ffe1 4b3e
00000340: 5e1e 403c d9dd af3e e209 75bf d718 06be
00000350: 16af c9be d136 703e 5e9b d33d 4c7a c53d
00000360: 4240 24be 539a 343e 7e18 0dbf 0d24 e8be
00000370: d018 9e3d b802 cebe 60f5 833d 724c 87bd
00000380: 3170 df3b 295d 93be f59b 673e 271a 973c
00000390: 3579 44bd fc93 bfbe 84aa b43d f82e eebe
000003a0: 7470 7c3d 6684 d1bd ae1c 083e 9d39 223e
000003b0: 863e 8b3e 1924 323e a440 fd3d 004c 323d
000003c0: cf3c 543e f4bb 813d 8d7f 65bc 5010 c43d
000003d0: a45f 5dbd a5a0 26be 78d6 d9be 9d5c ecbd
000003e0: 8592 fa3c b104 bbbd c5c5 363c 96c6 583e
000003f0: 582a aabe 31bd 30bd 446a 253e ff1c 96bd
0.13525565 -0.10165902 -0.20627087 0.1549624 0.41845658 0.019447621 0.11771611 -0.19359854
0.20773695 -0.2299106 0.26825368 0.27095574 0.23095547 0.33055532 -0.1364043 0.25527093
-0.22458714 -0.04709569 0.37506974 0.18397984 0.50349593 -0.053088292 0.040775474 -0.07272735
-0.24394175 0.23350924 -0.29854137 0.35590124 -0.49404696 -0.054208007 -0.11677303 -0.3969099
-0.19476625 -0.09869372 0.25446203 -0.07856053 -0.093275316 -0.021792391 -0.32118878 0.07499273
-0.16484812 0.06261092 -0.45470995 0.15823986 0.30780074 -0.017397255 -0.032630213 -0.27447113
-0.10338339 0.04201586 0.046720807 -0.32695836 -0.1517217 0.34705514 -0.22812656 0.23091772
0.11465152 0.04965624 0.016306173 0.18484053 -0.24882466 0.3002434 0.073212914 0.2616866
0.21262257 -0.17939676 0.16460998 -0.15191013 -0.1425025 0.10038882 -0.07707277 0.35705465
0.13431855 -0.023463206 0.14856088 -0.19417325 0.10089778 0.019884372 -0.07774396 -0.14885998
0.04643104 0.44735488 -0.38390496 -0.015682122 0.10270373 -0.26735464 -0.27547574 -0.08146701
-0.17783533 0.0848512 -0.17109287 0.04820226 0.105914 0.12511264 0.07058603 0.3129489
0.15299639 -0.13815905 -0.25097066 0.14593574 0.09554955 0.1313037 0.0491394 0.02499826
0.121447735 0.18570232 0.3483955 0.49975076 -0.068865284 -0.1134114 -0.11614229 0.30673796
0.44010952 -0.2289579 -0.13778372 0.053512063 0.23300259 0.045714326 -0.191101 0.053751994
-0.15914853 0.21997063 -0.331452 0.29022157 -0.20000884 -0.13635138 0.049558077 -0.45893866
0.20148236 0.0067794337 -0.04171553 0.101521455 0.090549804 0.17852765 0.08363063 0.12840044
0.13689695 0.22260793 0.4894611 0.08925478 -0.032178614 -0.17896241 -0.10297933 0.24566683
0.284211 -0.039185032 -0.12766364 0.08512424 0.13108048 -0.26133287 -0.0793041 -0.07128143
-0.0137672145 -0.085051484 -0.43316722 -0.13402383 0.03626037 0.06859289 0.072057664 0.21568723
-0.018631782 -0.24408372 0.12635604 -0.08112669 0.052235924 -0.23681043 -0.07621381 -0.03352241
0.037598796 0.22062607 -0.4255296 0.02056554 0.33786574 -0.26755163 0.27186638 -0.16856723
0.104511544 -0.045151956 -0.0007641093 -0.048093863 0.19059847 0.44383493 -0.09953072 0.015159172
0.20388606 -0.3190022 0.11738573 -0.09794936 -0.039967 0.35899892 0.066210195 0.08803251
0.291621 0.06779868 -0.15990001 0.31979933 -0.45821083 0.09357756 0.027763098 -0.047734857
0.093893446 -0.22820856 0.43987843 0.097093605 0.19164315 0.17302896 0.17035544 0.1991043
0.01172599 0.34348944 -0.95718205 -0.13095413 -0.39391392 0.23458411 0.10332368 0.09642467
-0.16040137 0.17636995 -0.551155 -0.45340005 0.07719576 -0.4023645 0.06443286 -0.06606378
0.006818794 -0.28782013 0.22618087 0.018445088 -0.047967155 -0.3741759 0.08821586 -0.4652021
0.06163068 -0.10230331 0.1329219 0.1584229 0.2719614 0.17396583 0.12365845 0.04352951
0.20726322 0.06334677 -0.014007461 0.09573424 -0.054046288 -0.16272219 -0.4254644 -0.11541102
0.030587444 -0.09131754 0.01115555 0.21169505 -0.3323543 -0.043149177 0.16153818 -0.07329749

regressor.wh_1.bias f4 [80]
00000000: 49c8 9abe 8a6d 53bb 61f4 bdbe c599 5dbe
00000010: f815 cbbd 7111 91bd 441a 75be fd7d efbc
00000020: a2d4 14be eb78 5fbe 84b6 3fbe 10b2 9e3d
00000030: 2aec 0c3e a1de 96be d4d5 9cbd cad5 37be
00000040: 6094 74be dce7 aabd 0901 03be 0b88 a8bd
00000050: 41ab b9bd 352d 9b3d 317c 333e 6871 67bd
00000060: 831d d7bd 39cc 40be 150b 17be 1f78 323e
00000070: c837 f4bd b8ac 2fbe 35ce 0abe 34f9 50be
00000080: ab0c 02be 3125 773c 0dd8 26bc 1421 8abe
00000090: 89ed 6fbe 49de 11bc 65fd df3d fd8c 71bd
000000a0: 7c11 fabd 2c52 30be 15ea 02be f873 293d
000000b0: 9a1f afbe ae7d 55bc b935 94be fe7f eabe
000000c0: 671d afbe fbcc 3fbd bee0 a2bd d302 01bd
000000d0: 3cfb e2bd 284c b1bd d5d7 a5bc cd27 90be
000000e0: 0a03 bcbd f2a7 e7bd 7829 97bd 4d9c 0fbe
000000f0: 0a97 d13c c349 3bbe 8e8b 09be 10f0 8dbd
00000100: d7dc 38be fe3c 12be 5577 603e 26a1 2ebe
00000110: c295 f4bd e750 f7bd 86f6 283e 293d b73d
00000120: c690 b0bd b597 7bbd 90f4 78bd f2d2 2ebe
00000130: 946b 92be 6178 12be 75e8 4dbe 6c27 5bbe
-0.3023093 -0.0032261335 -0.3710051 -0.2164069 -0.099162996 -0.07083405 -0.23935801 -0.02923488
-0.14534238 -0.2182347 -0.18721968 0.077488065 0.13761964 -0.29466727 -0.07657972 -0.17952648
-0.23884726 -0.08345005 -0.12793364 -0.08229073 -0.09065867 0.07576982 0.17527844 -0.056504637
-0.10503676 -0.18827905 -0.14750321 0.17428635 -0.11924702 -0.1715573 -0.13555224 -0.20407563
-0.12700145 0.015084551 -0.010183346 -0.26978362 -0.23430456 -0.008903095 0.10937003 -0.058972348
-0.12210366 -0.17218846 -0.12784608 0.041370362 -0.34203798 -0.013030453 -0.28947237 -0.45800775
-0.3420212 -0.046826344 -0.079530224 -0.031496834 -0.110830754 -0.08657104 -0.020244518 -0.28155366
-0.09180267 -0.1131133 -0.073809564 -0.14024468 0.025584716 -0.18289857 -0.13432142 -0.06930554
-0.18052994 -0.14281079 0.21920522 -0.17053661 -0.119426265 -0.12075978 0.16500291 0.08947212
-0.08621363 -0.061423976 -0.060780108 -0.17072657 -0.285977 -0.14303733 -0.20108207 -0.21401757
